app/models/resnet-ish.pkl (torch_old, 212590 bytes, 65 tensors)

weight f4 [8, 1, 3, 3]
000000 58 f8 81 3f ad 5e 14 bf b9 90 6f 3e 6d e0 19 40
       1.0153913 -0.57956964 0.23395051 2.4043229
000010 e6 60 98 3e 89 54 29 3f 7c 9c 3b 40 af fb 0e 3f
       0.29761428 0.66144615 2.931426 0.5585279
000020 3d 5b da bd 63 02 a2 3d ce 9a 38 3f d9 6c 46 3f
       -0.106619336 0.079106115 0.72111213 0.7750984
000030 10 19 cb 3f e0 3f 89 3f 04 a0 8c bf dc 3f 4e bf
       1.5867023 1.0722618 -1.0986333 -0.8056619
000040 94 00 e0 bf 4e 66 2c bf 5e fb 99 bd 14 1e bd bf
       -1.7500176 -0.67343605 -0.075186476 -1.4774804
000050 e0 6e 2c 3f ed 93 4d bf 8a 9d 88 bf e8 1a 11 40
       0.6735668 -0.8030384 -1.0673077 2.2672672
000060 63 91 96 be c5 a2 1b 3f d1 58 66 3f 18 60 74 3f
       -0.29407796 0.6079524 0.89979273 0.9545913
000070 7b d3 a6 bf d0 26 06 bf e0 32 2a 3e 62 fb 88 c0
       -1.3033289 -0.52402973 0.1662097 -4.2806864
000080 c7 46 65 3d 62 eb 80 bf dd 05 2a c0 80 c7 b4 3e
       0.0559757 -1.0071833 -2.6566079 0.35308456
000090 f8 36 4c bf 95 85 34 3d 5f 37 97 3e be c3 1a 3f
       -0.79771376 0.044072706 0.29534432 0.6045493
0000a0 fa e1 d5 3f e6 87 b1 3f 5e 4a 8b bf 90 ed fb bf
       1.6709588 1.3869598 -1.088207 -1.9681873
0000b0 26 c6 d9 3e d4 10 1c 3e bf f3 06 3f a8 d2 e6 3f
       0.42533988 0.15240794 0.5271568 1.8033037
0000c0 cf 30 12 bf b6 f7 96 bf 13 9b 7c 3f 6b da 5e be
       -0.57105726 -1.1794345 0.98674124 -0.21763007
0000d0 2a fd 0d c0 fb d1 35 bf ba c4 b4 be 03 ea bf bc
       -2.218577 -0.7102353 -0.3530634 -0.023427015
0000e0 e8 8f 93 bf 2d e6 13 bf c6 2f 2e 40 0b 37 58 3f
       -1.1528292 -0.57773095 2.7216659 0.8445899
0000f0 4f d7 99 be 00 0e 24 40 d5 85 c3 be e7 85 8e bf
       -0.3004708 2.5633545 -0.38188043 -1.1134614
000100 3b ed 3c 3f ae e7 c2 3f df 6f 1b bf 9e 95 10 40
       0.73799485 1.5226953 -0.60717577 2.259132
000110 19 79 7f 3e 59 ba 1b 3f 90 82 28 be 81 ec b2 bf
       0.24948539 0.6083122 -0.16456056 -1.3978425

weight f4 [8]
000000 c0 2d c4 3f a5 f8 75 3f e4 f8 9d 3f 9e 62 87 3f
       1.5326462 0.96082526 1.234158 1.057697
000010 51 bf 63 3f 4b 59 64 3f 7f 31 cf 3f f1 37 95 3f
       0.889638 0.8919875 1.618698 1.1657697

bias f4 [8]
000000 8b ff 03 3d 9b 02 80 be e1 f4 ba 3e 5d fb f4 be
       0.032226127 -0.25001988 0.36514953 -0.47848025
000010 a7 c7 71 bd a1 69 6c bb 1c c7 bf 3d ba 26 25 3e
       -0.059028294 -0.0036073702 0.09364149 0.16128054

running_mean f4 [8]
000000 8a 3c 0a 40 65 b7 03 3f 87 3a 1f 3f 59 ea 35 40
       2.159945 0.5145171 0.6219868 2.8424284
000010 24 5b e7 3e ad e7 54 3f df 8e 96 3f 75 67 4e 3f
       0.45186722 0.8316601 1.1762351 0.8062661

running_var f4 [8]
000000 ce 5f e4 41 24 07 f6 3f 43 e2 63 40 8f 49 00 40
       28.54678 1.9220929 3.560685 2.0044897
000010 40 7c ed 3f 44 af b0 3f 47 72 1c 41 55 0a 9e 40
       1.8553543 1.3803487 9.7779 4.938761

weight f4 [8, 8, 3, 3]
000000 64 27 54 3f 3e d8 de 3e 25 6b e3 bf f7 4d 6a bf
       0.82872605 0.43524355 -1.7767073 -0.91525215
000010 5f b3 8a 3f 00 b5 33 c0 d5 17 d6 bf 73 8c fb 3e
       1.083599 -2.8079224 -1.6726023 0.49130592
000020 8a df 1e 3e 4f ea 00 bf 91 14 ff be 27 4a dc 3e
       0.15514961 -0.50357527 -0.49820378 0.43025324
000030 5e 19 64 bf 09 e7 8d 3f cb f3 fa bf 55 e9 68 bf
       -0.8910121 1.1086131 -1.960565 -0.90981036
000040 1a ee 20 bf fd 4f a4 be 7c af 77 be 96 29 f8 bf
       -0.62863314 -0.32092276 -0.24188036 -1.9387691
000050 f7 11 98 bf 36 bd bd 3f 3f c1 06 c0 dc fd 34 3e
       -1.1880482 1.4823368 -2.1055448 0.17674965
000060 d8 d4 e6 3f 1e 16 fd bf 13 4e 52 3f a8 c2 87 bf
       1.8033705 -1.9772375 0.8215038 -1.0606279
000070 7e a3 a5 bd f8 b7 0c be d0 25 54 3f 1b 2e 23 bd
       -0.08087824 -0.13742054 0.828702 -0.03983889
000080 6c 08 54 3f ee 38 cc 3f d5 33 c9 3f 44 b9 f4 be
       0.8282535 1.5954874 1.5718943 -0.47797596
000090 ed f1 8d 3e f5 e1 7b bf f4 aa c6 bf 66 61 21 3f
       0.27723637 -0.9839166 -1.5520921 0.63039243
0000a0 c3 be af c0 57 ec 7b be d7 79 3e 3e a7 32 4a bf
       -5.4920363 -0.24601875 0.18601166 -0.7898354
0000b0 d6 b8 9c 3d ef be af 3e 89 20 21 bf 52 33 d3 3f
       0.07652442 0.34325358 -0.6294027 1.6500037
0000c0 f4 ef f9 3f 19 13 2c c0 c7 6d d5 3e 2d ce 71 3f
       1.9526353 -2.6886656 0.41685316 0.94455224
0000d0 cf 77 c0 bf cd 0d 4f be 56 32 a2 3f 62 dd e5 bd
       -1.5036563 -0.20220108 1.2671611 -0.11223866
0000e0 38 d2 55 bf 3f 32 ba 3f 2f 26 8f 3e 59 2a 50 bf
       -0.83523893 1.4546584 0.2795882 -0.8131462
0000f0 d6 cc de 3e f8 23 df bd 49 cd cb 3e 84 3f 39 bf
       0.43515652 -0.10895532 0.39805058 -0.7236254
000100 7d 9d 1e bf c6 69 8c be 0f f3 41 3e a3 e0 97 bf
       -0.6195906 -0.2742445 0.18940376 -1.1865429
000110 17 8f 35 3d d4 e0 c6 3f 5c 55 ff be 8d fb b1 3f
       0.044325914 1.5537362 -0.49869812 1.3904892
000120 b8 c8 47 3d c7 87 7d bf c1 ac ba 3e 9b 02 94 bf
       0.048775405 -0.99035305 0.36459926 -1.1563295
000130 da e1 0f c0 b0 3a 28 3f 93 da a1 3f 58 6c fd bd
       -2.24816 0.6571455 1.2644829 -0.123741806
000140 fd a4 c2 bf 92 be 99 3f d1 ef 24 3f 30 9d b9 3c
       -1.52066 1.2011282 0.6442843 0.02265796
000150 14 74 bd bf 45 d4 28 bf be 87 1b 3f e9 60 a6 be
       -1.4801049 -0.659489 0.60754 -0.32495812
000160 05 2f ce bf 5c cd c8 3e 10 dc 09 be cc f0 43 3f
       -1.6108099 0.39219177 -0.13462853 0.765393
000170 6d 28 a2 bf ea ba f0 bf 36 85 ae be 3d d4 af 3e
       -1.2668587 -1.8807042 -0.34086007 0.34341612
000180 3e 66 53 bf 99 8e 09 c0 7e a3 a9 bf 9f 3f 05 be
       -0.82577884 -2.1493285 -1.3253019 -0.13012551
000190 65 a9 12 bf 91 be c4 3e 74 2c 90 3f 6d ca d4 3f
       -0.57289726 0.3842664 1.1263566 1.6624275
0001a0 83 07 14 bf 3b c8 95 bf 33 64 20 3c 33 3f ee be
       -0.5782396 -1.170173 0.009789514 -0.46532592
0001b0 8c 7f f0 3d 21 eb 0c bf a9 a8 9e bf 18 a8 01 bf
       0.11743078 -0.5504628 -1.2395221 -0.50647116
0001c0 53 30 59 3f 0b e4 88 3f 6e 06 d5 3f f2 dd 4b c0
       0.8483936 1.0694593 1.6642587 -3.1854215
0001d0 f5 f8 39 3d ef 2a 3b 3e a5 4c 2c be 3b f8 72 bf
       0.04540344 0.18278097 -0.16826113 -0.9491002
0001e0 15 90 01 40 e4 1f 26 3f 53 8f 10 3f 3f 8f 18 c0
       2.024419 0.6489241 0.56468695 -2.383743
0001f0 65 69 ee 3f 18 b7 9b 3f 2d 50 27 3f 78 1f bb 3e
       1.8625914 1.2165251 0.65356714 0.36547446
000200 c1 6c 13 bf 31 59 cf bf b9 5b db bf 5c 0c c1 3f
       -0.5758782 -1.6199094 -1.7137367 1.5081897
000210 2a 79 9e 3f c1 a2 4d bf 27 72 05 c0 23 35 5a 3e
       1.2380726 -0.8032647 -2.0850923 0.21309333
000220 11 4c 36 3e 31 2f ae bf af 2b 22 c0 c2 26 1d bf
       0.17802455 -1.3608152 -2.5339162 -0.61387265
000230 30 ec 1a 3f 46 5e 03 c0 d7 38 1f c0 a6 2b f2 3d
       0.60516644 -2.052629 -2.4878442 0.118247315
000240 48 9a 67 3e 20 46 9b 3e bc fb d1 be d6 8a 91 3f
       0.22617447 0.3032694 -0.4101237 1.1370494
000250 88 15 f3 bd 06 37 a4 bf c5 2f c7 3e 5e ba a7 3e
       -0.11869341 -1.2829292 0.38903633 0.32759374
000260 01 a6 ec bf 70 9d 2b 3e 17 3d 4a 3f d4 80 ac be
       -1.848816 0.16759276 0.78999466 -0.33692038
000270 29 8c 27 be 4a d1 a1 3e 44 c2 aa be f1 5a 30 3f
       -0.1636206 0.31604987 -0.33351338 0.68888766
000280 ed 86 a7 be e7 c0 16 3f 81 4c 84 bf 85 20 7c bf
       -0.32720128 0.58888096 -1.0335847 -0.9848712
000290 61 df 08 bf bb cf aa bd 04 13 c7 be 07 64 1a 3d
       -0.5346585 -0.08340403 -0.38881695 0.03769305
0002a0 de a3 a2 3f 5b 7d 19 bf 6b dd a9 be 1b ff 82 be
       1.2706258 -0.599569 -0.3317674 -0.25585255
0002b0 9b d6 73 3f 2c 08 17 be 71 a9 bf bf ab f8 1f 40
       0.95249337 -0.14749211 -1.4973584 2.4995525
0002c0 4e 8a 6c bf 83 8b de be e4 d8 0c 40 d5 ca 44 be
       -0.92398536 -0.43465814 2.200738 -0.19218
0002d0 32 21 99 be 5c 75 52 bd e7 38 07 be 90 72 74 bf
       -0.2990814 -0.051381454 -0.132053 -0.9548731
0002e0 44 08 03 bf c7 e0 bc 3f 1f 83 2f 3e bc 6c 7d bf
       -0.5118449 1.4756097 0.17139862 -0.9899404
0002f0 c1 29 83 3f 06 6d 83 3e 35 7d f2 3f 8a c9 96 bf
       1.0247117 0.25669116 1.894446 -1.1780255
000300 2e 91 37 bf 2c d9 0e 40 18 18 3f 3e 86 09 19 bf
       -0.717059 2.2320051 0.18661535 -0.59780157
000310 ae 58 9e 3e 5f f2 0c 40 ed 78 8a 3e e7 c5 fd be
       0.30927032 2.2022932 0.27045384 -0.4956505
000320 a4 c7 7a 3f 20 3b 30 40 26 5f f5 bf 91 65 db 3f
       0.9796088 2.7536087 -1.9169662 1.7140371
000330 46 e4 d9 3f 15 a7 2b c0 67 4a 1a 3f 45 23 02 be
       1.7022789 -2.6820729 0.6026978 -0.12708767
000340 e6 49 02 bf e3 08 50 3d 21 45 a2 3e f0 6c 90 bf
       -0.5089401 0.050789725 0.31693366 -1.1283245
000350 3a 43 98 3d db ef d5 3f 95 8b 93 bf bc 55 16 3e
       0.074346974 1.6713823 -1.1526972 0.14681143
000360 bf d5 04 bf 01 8a 8a 3f a1 ea 2f 40 99 81 29 bf
       -0.5188865 1.0823365 2.7486956 -0.66213375
000370 9f 94 8a 3f d5 0e 1b 40 e6 9a f8 bf dc b0 cd be
       1.0826606 2.4227803 -1.9422271 -0.40173995
000380 87 ca 5f 3f 43 80 b9 3e f4 38 04 3e a9 b1 ae 3c
       0.8741841 0.36230668 0.12912351 0.02132495
000390 f1 37 5a 3f b8 b9 9b bf 47 a5 86 3c c5 3e 92 3e
       0.8524161 -1.2166052 0.016436232 0.28563514
0003a0 a4 f2 56 bf d0 9e 68 bf 14 53 62 3e 5a cb 5c 3e
       -0.8396399 -0.9086733 0.22102004 0.21561947
0003b0 b0 8f 46 bd e8 67 00 3f 45 48 39 3f 36 2d 8f c0
       -0.048476875 0.5015855 0.723759 -4.474269
0003c0 d0 68 aa 3e 6b c9 61 bf b3 26 c7 bf 26 67 14 3e
       0.3328309 -0.88197964 -1.5558685 0.14492473
0003d0 50 85 1f 3f c9 c1 64 3f 0d fb b4 be 3a 94 33 40
       0.62312794 0.8935819 -0.35347787 2.805922
0003e0 e2 98 af 3f 80 f0 92 3f 50 e5 0d 40 9d 45 fa bf
       1.3718531 1.1479645 2.2171211 -1.9552494
0003f0 dd 94 04 be 5b 2d 75 be e3 4d f0 bf 9e b5 fa 3e
       -0.12947412 -0.23943083 -1.8773769 0.48966688

weight f4 [8]
000000 e4 b4 96 3f 1b 32 8d 3f 31 4a 75 3f b3 56 c7 3f
       1.1773953 1.1030916 0.9581633 1.5573334
000010 cb 2b b5 3f ae 14 ff 3f b6 16 64 3f 2e 7f e8 3f
       1.415399 1.9928186 0.89097154 1.8163812

bias f4 [8]
000000 6d 58 4a 3e ac 41 2a bd c5 ec 4b 3e 3a 12 30 3f
       0.19760294 -0.041566536 0.19914539 0.6877781
000010 87 de e6 3d 7d 79 6a 3f 7c c4 e4 3e 27 38 88 3e
       0.112729125 0.91591626 0.44681156 0.2660534

running_mean f4 [8]
000000 ab fb c1 40 24 99 a0 40 26 82 40 40 55 d4 2f 40
       6.061971 5.018694 3.0079436 2.7473347
000010 7b c6 9e 40 29 d4 98 40 65 01 b1 40 fb dd e9 40
       4.9617286 4.7758985 5.53142 7.308347

running_var f4 [8]
000000 a2 b3 28 42 55 74 96 41 f9 09 6b 42 65 7a 90 42
       42.175423 18.806803 58.75974 72.23905
000010 ae 86 e8 42 14 4c d7 42 6c f7 85 42 71 ac 12 42
       116.26305 107.64859 66.983246 36.6684

weight f4 [8, 8, 3, 3]
000000 dc a0 21 3e 8b 05 bc 3f 3e d5 65 3d d8 2b 8f bf
       0.15784019 1.4689192 0.056111567 -1.1185255
000010 3b f1 da be d4 ee 2b 3e be a4 cc bf b0 74 b7 bf
       -0.4276217 0.16790324 -1.5987775 -1.4332485
000020 05 a9 38 bf 63 36 70 bf ac e9 59 3f 4c 88 5b be
       -0.72132903 -0.9383299 0.8512218 -0.21438712
000030 2f cd b3 3e 00 de 7d 3f e8 c5 19 bf 01 ee 5e 3e
       0.3511748 0.9916687 -0.60067606 0.21770479
000040 1c e1 d4 3f c2 3e db bd 78 d0 73 3f 81 dc 94 3f
       1.6631198 -0.107053295 0.95239973 1.1629792
000050 b1 db 8c 3e 58 68 8f be ee b4 f6 be f1 36 ba bf
       0.2751136 -0.28009295 -0.48184913 -1.4548017
000060 e1 e6 e1 3f 1d b7 9c be fa 9a e6 bf 75 4e 75 3f
       1.7648584 -0.30608454 -1.8016045 0.9582284
000070 c6 b0 56 3f 4d 27 a1 3f 59 aa 88 bf e0 27 d7 bf
       0.83863485 1.2590119 -1.0676986 -1.6809044
000080 49 9d c4 bf d0 94 86 3e e3 bc 96 bf 4b 09 51 bf
       -1.53605 0.2628541 -1.1776394 -0.81654805
000090 cb d9 db bf 59 8d cc bf 17 05 1e bf 52 3c 7c be
       -1.717584 -1.5980636 -0.61726516 -0.24632385
0000a0 15 36 29 3d 41 06 a3 3e a6 24 cb 3f c0 50 1d 40
       0.041311342 0.3184071 1.5870559 2.4580536
0000b0 26 b5 45 40 d3 b3 06 bf 55 18 25 be 6d 46 a8 3f
       3.0891814 -0.5261814 -0.16122563 1.3146492
0000c0 29 d7 9a bf cb 9a 06 c0 a1 8c ca bf 53 bd a3 3f
       -1.2096912 -2.1031978 -1.5824167 1.2792152
0000d0 91 65 28 3f 69 36 ac 3e 71 82 eb 3d c9 8f 98 3f
       0.6577998 0.33635262 0.11499489 1.191888
0000e0 0e 6a e4 be b9 1b 06 3d 61 d9 04 bf 8d 39 f8 bf
       -0.44612163 0.032741282 -0.51894194 -1.9392563
0000f0 3d b9 e6 bf da 3a 11 c0 d2 d1 7a bf 01 d0 45 3f
       -1.802528 -2.269217 -0.9797641 0.77270514
000100 e0 35 24 3f 40 b9 bd bf 50 da 6f bf 23 39 d3 be
       0.64144707 -1.4822159 -0.93692493 -0.4125453
000110 40 20 a8 bd 29 95 88 be 86 98 74 bf db 4b a2 3e
       -0.08209276 -0.266763 -0.9554523 0.31698498
000120 af aa 57 be e4 b3 0c bf dd 00 68 bd ca 3b 04 3f
       -0.21061204 -0.5496199 -0.05664145 0.5165373
000130 d5 c8 c4 3e 8f 8a af bf aa 97 19 3f ad 34 d7 be
       0.38434473 -1.371416 0.59997046 -0.42032376
000140 0a 3c 9d bf 64 c0 ea 3d 3b 61 6a 3f 89 3b 7a bf
       -1.2283947 0.11462477 0.9155461 -0.97747093
000150 3d d1 8c bf 2c 3c 2a c0 d4 51 76 3f 95 9d 6f 3e
       -1.1001354 -2.6599226 0.9621861 0.23399957
000160 ac fb c5 3f 51 56 20 3f b6 db 9a be 7b c0 9a bd
       1.5467429 0.6263171 -0.3024575 -0.07556244
000170 0a 20 00 bf 1c 5e 44 3e a6 bf 7c bd 6e cb e1 bf
       -0.5004889 0.19176525 -0.061706208 -1.7640207
000180 fb 04 b8 3d 7a d8 87 bf bb df 01 c0 f7 39 d3 3f
       0.08985325 -1.0612938 -2.0292804 1.6502064
000190 53 d9 7a 3f c3 6d 04 3f 2f 75 50 3e ee 38 aa bf
       0.9798786 0.51729983 0.20357202 -1.3298624
0001a0 4a 42 e3 be 97 b6 32 c0 85 dc a6 be 69 42 89 3e
       -0.44386512 -2.7923944 -0.32590118 0.2680848
0001b0 31 33 aa 3e 64 de d9 3e 7b 26 98 be 1e e7 d8 bf
       0.3324218 0.42552483 -0.29716858 -1.6945531
0001c0 40 ab 62 bf 0c d6 07 3f ad e7 9f 3f 51 a4 3e 3f
       -0.88542557 0.53060985 1.2492577 0.74469477
0001d0 94 78 ce be d8 06 68 3e 6e 7b df 3e 9f e1 0a 40
       -0.4032637 0.2265886 0.43648857 2.1700208
0001e0 fb b3 3e 3f fd ce 8e bf 48 66 23 c0 3e 3f c3 bf
       0.7449338 -1.1156918 -2.5531178 -1.5253675
0001f0 26 7a e6 be 17 1e a1 3f e5 e9 89 bf ed 77 c0 3e
       -0.45015067 1.2587308 -1.0774504 0.37591496
000200 75 20 8c 3f 3b 78 4b 3f 05 fb 98 3f 33 9d 29 3e
       1.0947405 0.7948033 1.1951605 0.16563873
000210 da a5 3f c0 11 8d c9 bf eb d3 34 bf e8 a2 0f 3f
       -2.9944978 -1.5746175 -0.7063586 0.5610795
000220 b0 04 6d bf a8 5b 19 bf d5 97 99 bf d2 9d e1 3f
       -0.9258528 -0.5990548 -1.199946 1.7626288
000230 32 5f 18 40 af 51 a1 3f b9 b3 96 bd 97 ec fc be
       2.3808103 1.2603053 -0.07358498 -0.49399254
000240 64 91 87 bf bd 90 01 40 a6 bd b8 3f af f2 8e 3f
       -1.0591245 2.0244591 1.4432876 1.1167811
000250 f7 98 81 3f 22 a9 79 bf 66 b8 a4 be a4 76 b0 bf
       1.0124806 -0.975237 -0.32171935 -1.3786206
000260 d9 b1 a9 bf d8 2e 99 3f ec 3e 51 bf ab 4f 2b c0
       -1.32574 1.196742 -0.81736636 -2.6767375
000270 af 13 3f 3f 3d 91 13 c0 9c 01 25 c0 26 7a bb bf
       0.7463941 -2.3057396 -2.5782232 -1.4646652
000280 3a 6f a8 bf 28 f2 46 bf e4 c8 9c 3f 69 8d af 3f
       -1.3158944 -0.7771325 1.2248807 1.371503
000290 c9 cb 00 3f 43 35 f8 3e 6b 0b b0 3c b9 2d 1d bf
       0.5031095 0.48478135 0.02148982 -0.6139789
0002a0 80 8b 30 be 37 80 48 bf 04 66 7c 3f e5 2a 06 bf
       -0.17240715 -0.7832064 0.98593163 -0.524092
0002b0 ff b7 63 bf 83 00 19 3e 36 8c cb bf 1a 1d 78 be
       -0.8895263 0.14941601 -1.5902164 -0.24229851
0002c0 80 e6 b2 3f 64 c7 8f 3e 7d fd a3 3f 46 86 4f 3f
       1.3976593 0.2808181 1.2811733 0.8106426
0002d0 48 d0 88 bd 5c d0 7f bf 0b d8 2f bf bb 59 d6 3c
       -0.066803515 -0.99927306 -0.6868903 0.026165834
0002e0 52 44 3c 3e 4c bc c1 be 4e 64 cc 3f 11 0c 81 3f
       0.18385437 -0.37838972 1.596811 1.0081807
0002f0 83 c8 b7 bf ad 04 c7 be 22 d7 fa bf e7 15 dd bf
       -1.4358066 -0.38870755 -1.9596903 -1.7272309
000300 19 41 e7 bf 4c fe 89 bf d4 c8 e7 3f 88 82 9e bd
       -1.8066741 -1.078073 1.8108163 -0.077397406
000310 c4 6d ba 3f 8b 25 00 3f c6 97 0a 3e d7 b4 d1 3f
       1.4564748 0.50057286 0.1353446 1.6383313
000320 03 85 ee be d0 f5 c6 3c b7 0b 3e 3f 10 3f 06 bb
       -0.46585855 0.024287134 0.74236625 -0.0020484366
000330 32 3d 83 bf f1 7d e2 bf 3b 8a 68 bf 8a 8e ad bf
       -1.025305 -1.7694684 -0.9083592 -1.3559124
000340 7b 79 68 bf b6 cd 4c 3f 1c 62 ab bf f3 dc 3c 3f
       -0.90810364 0.8000139 -1.3389316 0.7377464
000350 cc 25 1d 3c 68 be ba 3e b1 4b 92 3e 72 51 c8 bf
       0.009591531 0.36473393 0.28573373 -1.5649855
000360 28 66 75 3e 28 9c 19 bf 99 48 1b 3f a9 ec 6f bf
       0.23964751 -0.600039 0.6065765 -0.9372049
000370 b9 f0 98 bf 0e 5d 10 3f 24 19 5e c0 2c ad 0b bf
       -1.1948463 0.5639199 -3.4702845 -0.54561114
000380 05 af 33 bf 1d 4d 2d c0 1e 9c db bb 33 fe c4 3f
       -0.70188934 -2.7078316 -0.00670196 1.5390075
000390 0d c8 80 3f c9 11 8a 3f 4f 25 2a 3f 37 07 08 c0
       1.0061051 1.0786678 0.6646318 -2.1254404
0003a0 b9 e5 b8 3d b1 19 1a 3f e2 25 aa be 38 67 5b c0
       0.09028191 0.6019545 -0.33232027 -3.428175
0003b0 b3 ae aa bf 29 da c4 bf 87 9a 4a c0 97 16 91 bf
       -1.3334564 -1.5379077 -3.1656816 -1.1335019
0003c0 3a 67 be bf 59 49 e5 bf 62 73 0a bf fb 25 ec bf
       -1.4875252 -1.7913009 -0.5408231 -1.8449091
0003d0 bf 79 ac 3f 75 6f fd 3f 83 c7 98 bf 6f 89 5d 3f
       1.3474654 1.9799639 -1.1935886 0.8653783
0003e0 fc f5 98 3f b4 e2 c1 3e f7 24 cc 3e d1 cd 9d 3f
       1.1950068 0.37868273 0.39871952 1.2328435
0003f0 c3 41 3a bf 6b 26 12 3f 12 2b 91 3f 11 bb 2c bf
       -0.72756594 0.5708987 1.1341269 -0.6747294

weight f4 [8]
000000 66 de c8 bf da f7 2e 40 20 55 1c 40 5c 89 26 3f
       -1.5692871 2.7338777 2.4426956 0.65053344
000010 5f 3c fe 3f 2f cd 05 40 75 86 ab 3f 84 e1 c9 3f
       1.9862174 2.0906484 1.3400408 1.5771947

bias f4 [8]
000000 3c 28 29 bf 62 51 e9 3e 3e 58 0c be 67 14 62 3e
       -0.6607702 0.45569903 -0.13705537 0.22078095
000010 21 1c 97 3c c5 3e 58 3f 8c 7f d6 3e 52 e8 4b bf
       0.01844603 0.8447078 0.41894186 -0.7965137

running_mean f4 [8]
000000 1b 85 18 40 ca 3a 96 40 cf 9c 85 40 65 00 8a 40
       2.383124 4.6946764 4.1753917 4.312548
000010 af d5 96 40 82 81 2c 40 4c f0 f2 3e 58 4a c0 40
       4.7135844 2.6954045 0.47448957 6.009075

running_var f4 [8]
000000 39 1a 42 42 82 01 0c 43 c2 4e c9 42 d4 e8 aa 42
       48.525608 140.00589 100.653824 85.45474
000010 8d f8 0a 43 6b 65 a0 42 42 e2 f9 40 b7 55 cc 42
       138.9709 80.19808 7.8088694 102.16741

weight f4 [16, 8, 3, 3]
000000 6c fc 27 3f b8 34 7d 3f 5f 9b 95 3f 85 94 9b 3f
       0.6561954 0.9890857 1.168804 1.21547
000010 7b a8 25 40 36 a6 60 3f 1a 23 2d 3e 9b 11 12 3f
       2.5884082 0.8775362 0.16907921 0.57058114
000020 a5 b7 30 3f 59 60 7b bf 98 01 0a bf 04 d3 82 be
       0.6903022 -0.9819389 -0.5390868 -0.25551617
000030 18 ae ac bf 03 6e 69 bf bd d9 29 bd 78 f2 a8 be
       -1.3490629 -0.9118349 -0.041467417 -0.3299749
000040 e7 90 eb be 54 2e 9d bf c1 8d d3 be 80 fe 92 bd
       -0.4600899 -1.2279763 -0.41319087 -0.07177448
000050 f3 e4 fa 3d 11 ac 8f bf 4e e2 63 bf f2 f6 df bf
       0.122507 -1.1224385 -0.8901719 -1.7497237
000060 41 68 48 bf c3 62 ba bf 0b 46 a4 bf b1 b8 32 bf
       -0.7828408 -1.456139 -1.2833875 -0.69813067
000070 fa c4 85 bf 4b 8f 17 c0 d7 b7 1e be 98 a1 ca bf
       -1.0450737 -2.368121 -0.15499817 -1.5830564
000080 22 45 13 c0 3a 5c 73 3f e7 d6 8f bc d2 10 6b bf
       -2.3010945 0.950626 -0.017558528 -0.9182254
000090 a2 e1 ce 3e 1e d7 03 3f 46 76 b1 3e b9 ed 6a 3f
       0.4040652 0.5150012 0.34660548 0.91768986
0000a0 58 34 4d 3f e2 5a 8e 3f 9a c2 15 3f f4 05 04 3f
       0.80157995 1.1121485 0.58500063 0.51571584
0000b0 80 3f 8a 3f 5d 64 8d 3f ad f5 16 40 9e c7 04 40
       1.0800629 1.1046253 2.3587449 2.0746837
0000c0 8a 6d 5f 3f dd 12 22 40 6e 40 13 40 0d 74 38 bf
       0.8727652 2.5324013 2.3008075 -0.7205208
0000d0 e9 83 fa be d7 f3 68 3e a8 5d 46 be 0c 48 e5 be
       -0.48928764 0.22749268 -0.19371665 -0.4478153
0000e0 51 b8 17 3f af d2 2a bf 03 53 51 bf a5 5e 25 bf
       0.5926562 -0.6672773 -0.8176729 -0.6459754
0000f0 cc 1d 0a c0 b0 f2 ba bf 4a c7 8c 3e ee 38 aa bc
       -2.1580687 -1.4605312 0.27495795 -0.0207791
000100 16 cf 11 3e 7c d4 ca 3e 76 0c 37 3e 3a 5b 02 40
       0.14239153 0.39615238 0.17875847 2.036818
000110 ef ae 14 40 f3 81 3f 3f b5 bd 10 40 64 f2 c2 3f
       2.323177 0.7480766 2.2615788 1.5230222
000120 e7 57 24 3e 39 31 26 3f 96 ee 02 3f 15 74 22 bf
       0.16049157 0.6491886 0.51145303 -0.6345838
000130 97 a4 de bd 73 4d 3b 3f d7 4c a4 bf 48 6c 31 bf
       -0.10871237 0.73165053 -1.283595 -0.6930585
000140 7a a6 e4 3e 84 8a b2 bf 74 21 2f c0 50 4a be bf
       0.44658262 -1.3948522 -2.7364168 -1.4866428
000150 b9 de 1c c0 38 5e 8a c0 97 04 d0 bf 1d c7 8e bf
       -2.451094 -4.3240013 -1.6251401 -1.1154515
000160 cc b7 5b bf d3 9d fa bd 99 63 79 bf 60 9d af be
       -0.85827327 -0.12237134 -0.974176 -0.34299755
000170 da 29 81 bf a0 66 52 be 30 9e 56 3f ed d1 0c 3f
       -1.0090897 -0.20546961 0.83835125 0.5500782
000180 a3 ee 71 3f b1 a4 f7 3f 68 0f ab 3f db 1f 20 3f
       0.94504756 1.9347135 1.3364077 0.6254861
000190 a7 32 8d bc 63 bf 1b bf 7d 85 5e be 14 25 2d bf
       -0.017236067 -0.6083891 -0.21730609 -0.676347
0001a0 c8 4e 06 c0 d8 50 c3 3e f8 71 41 3e 82 14 21 bf
       -2.0985584 0.38147616 0.18891132 -0.6292192
0001b0 2a d4 ef be ab 43 43 3f a1 55 76 3f e6 09 ec 3e
       -0.46841556 0.7627513 0.9622441 0.46101302
0001c0 56 55 01 40 42 2a 01 40 63 f1 d8 3f 99 5e 4b 40
       2.0208335 2.0182042 1.6948665 3.1776488
0001d0 11 ca c8 3f 2e 59 f6 be 05 b2 96 bf 35 f1 18 c0
       1.5686666 -0.48114914 -1.1773077 -2.389722
0001e0 99 0f d3 bd fe 17 59 bf 81 d6 05 3f fa 5c 38 be
       -0.103057094 -0.84802234 0.5228043 -0.18004218
0001f0 4c 68 8d 3e 70 ac 26 3f b7 26 cd bf fc 22 3a be
       0.27618635 0.6510687 -1.602744 -0.18177408
000200 fc 52 c9 3e 05 f5 54 bf d8 f2 8e bf ed c1 16 3e
       0.39321125 -0.8318637 -1.116786 0.14722414
000210 0a 61 02 bf 06 34 00 bf b0 e0 b3 3e 40 d1 82 bf
       -0.5092932 -0.5007938 0.3513236 -1.0220108
000220 54 db 30 bf 89 53 1f bf 9b c5 c2 be 72 bf 68 bf
       -0.6908467 -0.6223684 -0.38041386 -0.9091712
000230 89 be 77 bf 6d 0f 54 be ec 63 c0 3e 55 fe a4 be
       -0.9677511 -0.2070901 0.37576234 -0.3222529
000240 26 26 81 be 20 06 da 3e 7d d9 01 bf e8 be a0 bd
       -0.25224417 0.42582798 -0.50722486 -0.078489125
000250 4d 40 fc 3e 09 0e 80 3f 04 88 90 be 08 bf a1 3f
       0.49267808 1.0004283 -0.28228772 1.2636423
000260 ff e9 41 3f 4a 83 bd be 0e 97 38 bf 37 aa 6f be
       0.75747675 -0.37014228 -0.7210549 -0.23404776
000270 ff 57 ad bf 2c a0 9f bf d6 45 24 bf 5c 0b 12 3e
       -1.3542479 -1.2470756 -0.6416906 0.14262146
000280 42 91 ed bd 2d ef 25 bf 05 8a ab be d4 78 a1 be
       -0.11599971 -0.6481808 -0.33503738 -0.31537497
000290 d1 3e b2 be 9f 83 21 bf 9f 5c f4 be c0 3e 96 be
       -0.3481355 -0.6309146 -0.47726914 -0.2934475
0002a0 8b f2 ab 3e af ab cd 3e d6 b7 3f 3d 61 c7 01 bf
       0.33583483 0.40170047 0.04680618 -0.50694853
0002b0 88 f0 88 bf 88 7b a6 bf 52 2c cc bf 18 90 18 c0
       -1.0698404 -1.3006449 -1.5951025 -2.3837948
0002c0 66 f5 fb bf ce 56 51 bf 32 e0 11 c0 84 08 a2 bf
       -1.9684265 -0.8177308 -2.2793088 -1.2658849
0002d0 29 ba 1d 3e 74 80 4a 3e ff 40 b5 3e c0 f1 0f 3f
       0.15403046 0.19775563 0.3540115 0.56228256
0002e0 af 06 6b 3f ab f5 66 3f b7 bd 72 bf 80 9a 03 bf
       0.91807073 0.9021861 -0.9482073 -0.51407623
0002f0 13 0c 62 3e 42 23 fb 3e fb 8b 3d 3f af 8a 8a 3f
       0.22074918 0.49050337 0.7404172 1.0823573
000300 ec 1c cd 3f 3e 8d f3 3f 10 47 39 3f 9e 7f c0 3f
       1.6024451 1.9027479 0.7237406 1.5038946
000310 c4 e7 90 3f 1b ca ff 3e 0e 68 dd 3e 6c 1f ba 3f
       1.1320729 0.49958882 0.4324345 1.4540839
000320 ec b3 ab 3f 68 39 f3 3f 16 7d 70 40 15 63 3b 40
       1.3414283 1.9001894 3.7576346 2.9279225
000330 28 31 c1 3f 75 b4 09 40 ef 6b b4 3f 5c 72 05 3f
       1.5093126 2.1516392 1.4095439 0.52127624
000340 49 bd 2b bf 17 7c d8 bf ec c8 5d bc 7c da cd bf
       -0.670857 -1.6912869 -0.013536673 -1.6082301
000350 cf 77 8d bf ed a7 15 bf 94 34 a6 3d c9 b6 96 bd
       -1.1052188 -0.5845936 0.08115497 -0.07359082
000360 3a ba 9a 3e a4 93 0a bf 45 b3 22 bf 34 b3 1c bd
       0.30220205 -0.5413153 -0.63554794 -0.03825684
000370 49 bc 9f bf 99 5e 8d bf c0 2c d0 be f9 10 2b be
       -1.2479335 -1.1044494 -0.40659142 -0.16705693
000380 6e 4d cd ba 44 52 6d 3f 58 c7 99 3f da e7 92 3e
       -0.0015663335 0.9270365 1.201396 0.28692514
000390 0a 28 02 40 3c e3 4d 3f 08 92 7b bf 1f d3 dd 3e
       2.0336938 0.8042486 -0.982697 0.43325135
0003a0 33 a7 da bf 09 1f 47 c0 e7 b4 ba 3f 65 75 4a bf
       -1.7082275 -3.1112692 1.4586457 -0.7908538
0003b0 29 16 4e c0 4e 67 16 bd ae d9 c9 bf 8f 3d 37 c0
       -3.2201025 -0.036719613 -1.5769556 -2.8631322
0003c0 0b 8b c5 be a1 b3 ca bf 5d ad 01 c0 d4 f6 4c 3f
       -0.38582644 -1.5836068 -2.0262063 0.8006413
0003d0 45 6a ad bd 5a 1f 97 3f 1f ef 59 3e 47 2d e8 3f
       -0.08467535 1.1806443 0.21282624 1.8138818
0003e0 61 79 15 3f 48 2e db be e4 92 c9 3e 9e ac 86 bf
       0.58388335 -0.42808747 0.3936988 -1.0521429
0003f0 26 2e 27 bf 0b 91 49 bf 91 79 e7 be 7b fd a4 bf
       -0.6530479 -0.78736943 -0.45209935 -1.2889856

weight f4 [16]
000000 7e 68 bd 3f 15 66 74 3f 1c 80 10 40 e3 12 9e bf
       1.4797513 0.95468265 2.2578192 -1.2349514
000010 57 29 7b 3f 81 a0 8a 3f ff 88 c9 3f a6 b8 87 3f
       0.98109955 1.0830232 1.5744933 1.0603225
000020 37 2b cf 3f 77 8f 86 3f f5 ac 73 3f 07 dc 37 3f
       1.6185063 1.0512532 0.95185786 0.7182011
000030 97 e2 9a 3f 16 96 9f 3f 13 fc c5 3f 8e c7 cc 3f
       1.21004 1.2467678 1.5467552 1.5998399

bias f4 [16]
000000 e6 a9 d1 3e 86 c1 c0 3e 74 54 2f 3e bc 32 46 3d
       0.40949935 0.37647647 0.1712206 0.048388228
000010 ed 89 ff 3e ab e1 84 3f 19 de 6e 3f fb f2 a3 3e
       0.49909917 1.0381368 0.93307644 0.32021317
000020 9e 16 4e 3f 72 b1 d2 3e 15 73 bf 3e 10 56 a7 3e
       0.8050326 0.41151005 0.37392488 0.32682848
000030 e2 53 c6 3e f8 3e e2 3e 87 c1 cd 3e 2d 52 c9 3e
       0.38735873 0.44188666 0.40186712 0.39320508

running_mean f4 [16]
000000 54 af 27 41 fd a2 24 41 90 f8 aa 41 95 8a a1 41
       10.480305 10.289792 21.371368 20.192667
000010 c4 40 ad 40 fc 1d 09 41 22 c2 8c 41 f8 8b 2a 41
       5.414156 8.56982 17.594791 10.659172
000020 95 73 85 41 bf 95 8b 41 a1 a2 50 41 49 8a 87 41
       16.681437 17.448118 13.039704 16.942522
000030 90 5a 6e 41 ad ca d7 41 18 01 9f 41 77 dd c1 41
       14.89711 26.973963 19.875534 24.233137

running_var f4 [16]
000000 a1 73 16 44 6f 13 8b 43 25 59 bb 44 e7 47 c3 43
       601.8067 278.15182 1498.7858 390.56174
000010 33 6e 69 43 34 0b f6 43 13 0a a7 44 23 ec 03 44
       233.43047 492.08752 1336.3148 527.68964
000020 be 4f 52 44 96 d8 6a 44 5e f8 53 44 a3 5f da 43
       841.246 939.38416 847.88074 436.74716
000030 4a 25 44 43 6b ce f2 43 25 31 9e 43 7c d7 27 44
       196.14566 485.61264 316.38394 671.36694

weight f4 [16, 16, 3, 3]
000000 a4 28 79 be f0 5f 9e be c4 49 43 bf 2e cd a7 be
       -0.2433191 -0.3093257 -0.7628443 -0.32773727
000010 d5 eb 03 c0 5e 2d c3 be d5 63 74 3d 8e fa 85 3e
       -2.061269 -0.3812055 0.05966552 0.2616772
000020 7a f2 5a bf ee a3 b6 be 50 08 1d be 12 ad 26 3d
       -0.8552624 -0.35671943 -0.15335202 0.040692396
000030 31 94 fc bf 9d 89 ba bf 3b 3d d9 3e f3 75 32 bf
       -1.9732724 -1.4573246 0.42429528 -0.69711226
000040 47 48 b8 3f 1e f0 7d be ce a2 a5 be d0 22 48 bf
       1.4397057 -0.24798629 -0.32350773 -0.7817812
000050 d7 96 80 bf e6 44 c9 3f 41 7e 80 bf 3c 05 98 bf
       -1.0046033 1.5724151 -1.003853 -1.1876597
000060 95 d6 99 3f bb 09 2e 3f 20 5e de bf fc f1 1f 3e
       1.201861 0.679836 -1.7372475 0.15619653
000070 32 f9 56 bf c1 cd dc be 52 82 00 3e 64 b6 12 c0
       -0.8397399 -0.43125728 0.12549713 -2.2923822
000080 48 c7 e6 bf 5e f1 ec 3e e8 53 13 40 98 c5 ac bf
       -1.8029566 0.462779 2.3019962 -1.3497801
000090 f0 5d 3a bf 34 2e 56 bf 1c f0 4a be 90 fd ae 3f
       -0.7279959 -0.8366425 -0.19818157 1.3671131
0000a0 0f db 80 3f ca bf eb bf d5 dc 09 40 c2 3a 3e 40
       1.0066851 -1.8417904 2.1541035 2.9723363
0000b0 04 8a c9 bf 77 25 f3 be cb b0 b7 bf 11 08 a8 bf
       -1.5745244 -0.4748952 -1.4350828 -1.3127462
0000c0 15 92 12 40 6c 51 b0 3f 59 62 0b c0 cb 6e 7d 3e
       2.2901661 1.3774848 -2.1778777 0.24749295
0000d0 95 69 85 3e 33 36 05 c0 3a df 51 be 98 6b 3c 3e
       0.26057115 -2.081433 -0.2049531 0.18400419
0000e0 2b e2 0f bf d4 c6 a0 bd 80 94 bf bf f7 d7 3f c0
       -0.5620448 -0.078504235 -1.4967194 -2.9975564
0000f0 bc 3d 62 bf 94 89 2c bf 18 f8 d7 bf d4 44 4e 3f
       -0.8837545 -0.6739743 -1.6872587 0.80573773
000100 b7 5d 75 3d a9 46 59 bf f7 ec 04 bf 99 fe 05 c0
       0.059903827 -0.84873444 -0.5192408 -2.0936644
000110 af 92 80 bf 31 a2 52 bf ac b9 f5 bf 63 95 fd bd
       -1.0044764 -0.82278734 -1.9197288 -0.12382009
000120 10 cf 8f 3f 8c d8 4c 3f 79 89 b5 bf b9 5e 3a bf
       1.1235065 0.80017924 -1.4182578 -0.72800785
000130 c8 31 09 bf c7 29 2f c0 8c e8 90 3f 60 f4 1f bf
       -0.53591585 -2.736925 1.1320968 -0.6248226
000140 d6 1a 27 c0 73 b0 ef be e9 83 03 bf 16 66 b7 bf
       -2.611013 -0.46814308 -0.51373154 -1.4328029
000150 b4 71 45 3f f7 8b 77 bd 3b eb d1 bf 8d ef 58 3d
       0.7712662 -0.060436215 -1.6399912 0.05296283
000160 88 45 54 bf 69 0e 3a 3e 10 36 e5 bd 8b 64 f6 3e
       -0.82918596 0.1816956 -0.11191952 0.48123583
000170 f7 00 b2 bc 60 d8 51 3f 49 4e 93 3d b1 5d 8b bf
       -0.021728976 0.8197079 0.07192666 -1.0887967
000180 6b 58 49 3f a6 20 c0 bf 9d c3 28 c0 fd 97 22 3e
       0.7865054 -1.5009964 -2.6369393 0.15878291
000190 8e 2a bb be f7 fa 54 bf ec e6 e1 bd b9 8e ce 3f
       -0.36555904 -0.8319544 -0.11030373 1.6137305
0001a0 59 39 64 3d 64 ec 2a c0 27 07 91 be f9 21 06 bf
       0.055718753 -2.6706781 -0.2832577 -0.5239559
0001b0 ee 46 a3 bf 69 9d b0 bf bd c1 7e be ae d7 79 3e
       -1.2756021 -1.3798038 -0.24878593 0.24398682
0001c0 e5 5c 0c 40 6b f1 d7 be 73 b0 c6 be 5d 0b 81 3f
       2.1931698 -0.42176375 -0.38806495 1.0081593
0001d0 67 9f 81 3f 99 cc 51 3f 4c fe 01 3f e4 1c 5b bf
       1.0126771 0.81952816 0.5077865 -0.8559096
0001e0 9a 88 88 bf f0 97 a8 3f 75 66 96 bf 9b 69 a7 be
       -1.0666687 1.3171368 -1.1750017 -0.32697758
0001f0 cf fc 17 c0 b9 12 3b 3f 84 4e e2 3d fb a7 96 3f
       -2.3748052 0.73075444 0.11050132 1.1770014
000200 e0 79 42 3f e2 14 6f 3f b5 9d 8e 3e d9 b8 8b be
       0.75967216 0.9339124 0.27854696 -0.27289465
000210 61 9a e2 be 67 9c 21 bf 71 4c 1c 3f 11 25 01 3e
       -0.44258407 -0.63129276 0.6105414 0.12611796
000220 d6 03 ce 3f 01 0f 4e bf f8 58 84 bf 9a 7b 9f bd
       1.6094921 -0.80491644 -1.0339651 -0.07787247
000230 8a f6 30 bf 59 72 ca 3e 94 d7 06 c0 e4 32 6e be
       -0.6912619 0.39540365 -2.1069078 -0.232616
000240 a9 2f 12 bf 62 c5 5d 3f b1 20 6d 3f 97 65 20 3f
       -0.57103974 0.8662931 0.9262801 0.62655014
000250 9a 1d f1 3e 07 38 eb bf 90 2d a7 3f 67 d6 e1 bf
       0.47092897 -1.8376473 1.306078 -1.7643555
000260 2b 4b 84 bf e8 1a 47 bf f5 6e ad 3d 42 de cd be
       -1.033544 -0.7777543 0.08468429 -0.40208632
000270 ed 0c 53 3f d6 a1 8c bf ed a7 0b bf dc 8c ed bf
       0.824416 -1.0986888 -0.5455311 -1.8558612
000280 30 a7 10 c0 84 77 dd be 9a c6 26 3f ee be 32 3f
       -2.2602043 -0.43255246 0.6514679 0.69822586
000290 3b a5 5a be ac 20 dd 3e 32 61 a0 bf ad 75 c6 bf
       -0.21352093 0.4318899 -1.2529662 -1.5504662
0002a0 2d 5f 51 bf 2b d2 0e c0 cf 95 8b bf d5 fa 51 3e
       -0.8178585 -2.2315776 -1.0905093 0.20505841
0002b0 1c 05 2e 3e 08 df 97 be de 39 e2 3e 3a 20 04 3f
       0.16994137 -0.29662347 0.44184774 0.51611674
0002c0 cf 59 f3 3f 52 e1 0a 3f 12 54 a8 be b4 16 fb 3f
       1.9011782 0.5425006 -0.3287664 1.9616303
0002d0 85 74 0f c0 10 76 b8 bf f5 56 10 3f 2f 59 ad bf
       -2.2414868 -1.441103 0.56382686 -1.3542842
0002e0 e3 a8 a8 bf a3 0b be be 42 40 02 bf 20 d4 8a bf
       -1.317654 -0.37118253 -0.508793 -1.0845985
0002f0 0c 34 be bd 8d 9e 02 bf ed cd a3 3f d4 64 32 3f
       -0.09287271 -0.5102318 1.2797219 0.696851
000300 a8 5f b7 be ba ec 39 bf 52 8e 92 bf 64 78 0e bf
       -0.35815167 -0.7262684 -1.1449683 -0.5565245
000310 7c 99 dc bf 0e b0 92 3f 59 51 24 3f 56 9a 99 3f
       -1.723434 1.1459978 0.64186627 1.2000225
000320 3c 24 8b 3f d6 b1 13 3e 84 5f c3 3f 1b fe 8a bf
       1.0870433 0.14423308 1.5263524 -1.0858797
000330 a2 8b 19 c0 0e f3 89 bf c9 71 a1 3f 5c f1 9a bf
       -2.3991475 -1.07773 1.261285 -1.2104907
000340 c9 24 2f bd b6 ff 9f 3f 67 95 e8 be d4 c9 3f 3f
       -0.04275969 1.2499912 -0.45426485 0.7491734
000350 14 98 df bf 28 2a 48 3f 01 df f0 bf 4b eb a4 be
       -1.7468286 0.78189325 -1.8818055 -0.32210764
000360 6a 36 14 c0 be b6 ad 3c 40 bd ef be ab cb d1 bf
       -2.3158212 0.021205302 -0.46824074 -1.639028
000370 42 0f 0c be 35 a0 4a 3f bf b6 df bd 66 77 a5 3e
       -0.13677695 0.79150707 -0.10923528 0.32317656
000380 fa a0 52 3f 66 de a0 3b be 30 0f 3f f4 58 90 3f
       0.8227688 0.0049093245 0.5593375 1.1277146
000390 75 dd fa 3e 88 da 0d c0 cd 28 3d c0 a0 50 8f bf
       0.48997083 -2.216463 -2.9556153 -1.119648
0003a0 9c 5c b5 bf 8f ba 54 3c 0c 72 b0 bf 64 b2 1b 3e
       -1.4168887 0.012983932 -1.3784804 0.1520477
0003b0 fe 4b 99 3f a3 d0 1f c0 c0 ef 5f 3e f3 d6 05 3f
       1.1976316 -2.4971092 0.21868801 0.5228111
0003c0 fb bb 8a bf c7 de 83 3f d7 b1 6e 3f fd ca 2b be
       -1.0838617 1.0302361 0.9324011 -0.16776653
0003d0 d1 f2 9c 3f a3 4e b1 bd 38 46 32 3f 0e 57 04 c0
       1.2261602 -0.08657577 0.69638395 -2.0678134
0003e0 d1 8d e3 bf f7 2d 19 c0 0f 09 4b c0 0a e2 33 bf
       -1.7777654 -2.3934305 -3.172428 -0.70266783
0003f0 3f d2 ae 3f 7a c3 c3 bf 2f 20 16 bf f8 7f 0b 3e
       1.3657912 -1.529403 -0.5864286 0.13623035

weight f4 [16]
000000 06 e8 c8 3f 55 1e 7e 3f e0 bd 92 3f a0 8b 92 3f
       1.5695808 0.99265033 1.1464195 1.144886
000010 db 32 db 3f 74 86 97 3f aa 44 f2 3f 89 a4 6f 3f
       1.7124895 1.1837907 1.8927205 0.93610436
000020 60 87 90 3f 04 10 d3 3f 79 9a ce 3f 6a 12 c1 3f
       1.1291313 1.6489263 1.6140891 1.5083745
000030 d5 c2 ce 3f dc 81 f5 3f 5b e7 b3 3f 61 99 ae 3f
       1.6153208 1.9180255 1.4054979 1.3640558

bias f4 [16]
000000 0c ab 19 3f 4c e8 a2 3e 43 a7 8f 3e 9e 15 cd 3d
       0.6002662 0.31817853 0.28057298 0.10013889
000010 07 46 f9 3e 82 b1 05 be 5b dc 42 3f b3 a5 91 3d
       0.4868624 -0.13055995 0.76117486 0.07111683
000020 70 a4 cf 3e 5a 81 08 3f 24 8a cd 3c 7e d1 23 3f
       0.40555143 0.53322375 0.025090285 0.63991535
000030 92 69 09 3f 4e cc 99 3e 8d 6d 69 be 70 b1 3e 3e
       0.5367671 0.30038685 -0.22795697 0.18622375

running_mean f4 [16]
000000 18 5e 8f 40 81 33 c0 3f b8 ca cb 40 be 0d 98 40
       4.480236 1.5015718 6.368496 4.7516775
000010 62 f0 b7 40 f3 5b 1d 40 00 3b 92 40 ef 5c 08 41
       5.7480936 2.4587371 4.569702 8.522689
000020 6b e8 5f 40 67 bb a0 40 db 30 69 40 b1 3e e3 40
       3.4985607 5.0228763 3.643607 7.1014028
000030 af 3f 16 40 e9 36 84 40 f3 aa 95 40 5b 5f c4 3f
       2.347637 4.131703 4.677118 1.53416

running_var f4 [16]
000000 de 96 f6 42 68 42 00 42 d5 a2 6d 43 a2 d6 14 43
       123.29466 32.06485 237.63606 148.83841
000010 16 7b 85 43 c0 83 85 42 96 40 0e 43 bd f6 5d 43
       266.9616 66.757324 142.25229 221.96382
000020 38 c9 8c 42 c4 74 06 43 c2 23 ee 42 2a d4 75 43
       70.393005 134.45612 119.06984 245.82877
000030 e7 6d 74 42 ce 5e 00 43 a3 de 10 43 bb 5b 14 42
       61.107327 128.37033 144.86967 37.08958

weight f4 [16, 16, 3, 3]
000000 59 22 86 3f c6 ad 0a 3f 61 7b 56 3d 8a 19 bb bd
       1.0479232 0.5417141 0.052363757 -0.091357306
000010 eb b8 6a 3e b1 81 87 bf 39 7b d0 be 4b 3d 43 3f
       0.22922103 -1.0586454 -0.4071901 0.762654
000020 d2 60 94 3f d7 ad e8 bf d6 52 33 bf 38 5f 80 bd
       1.1592047 -1.8178052 -0.7004827 -0.062681615
000030 6f 0a 9d be 14 e8 09 bf 91 72 7a 3f 48 3b 8a bf
       -0.30672023 -0.5386975 0.97831064 -1.0799341
000040 c4 54 42 be f9 13 46 3e 8a a5 87 bf 37 9c 05 be
       -0.18977648 0.19343556 -1.0597394 -0.13047872
000050 39 63 9b bf 58 ce 2e 3f ce ce df be 6e d9 3f bf
       -1.2139655 0.68283606 -0.43712467 -0.74941146
000060 d1 e6 27 3f f0 90 11 3e 21 c8 c4 3f 07 0b 95 bf
       0.6558657 0.14215446 1.5373574 -1.164399
000070 9d 6f 6b be 0e 8b a9 3e 90 b0 56 3f 1b 54 a9 3f
       -0.22991796 0.33113903 0.83863163 1.3228792
000080 4a af 08 40 89 72 e5 3f c4 76 0a 40 a6 ac cd 3f
       2.1356988 1.7925578 2.1634989 1.6068313
000090 9c 1e 05 c0 c1 cb 96 bf 0c a5 fc bf 32 a0 bf 3f
       -2.0799932 -1.1780931 -1.9737868 1.4970763
0000a0 32 19 19 40 35 b3 4c 3f e2 6e 8b 3f cb 72 75 be
       2.3921628 0.7996095 1.0893214 -0.23969571
0000b0 e1 73 aa bf 2c 57 82 bf 65 4d bb be c1 39 7f 3f
       -1.3316613 -1.0182853 -0.36582485 0.996975
0000c0 e6 40 bb 3f 41 e9 56 3e f1 8e c5 be 0b 23 66 c0
       1.462918 0.20987417 -0.38585618 -3.5958889
0000d0 bc a8 99 bf 83 5c 95 3f e8 1a 10 c0 5b ea ba bf
       -1.2004619 1.1668857 -2.2516422 -1.460277
0000e0 4c 45 e5 bf 2a 62 8d be bd 30 67 bf 2b 5f 70 be
       -1.7911773 -0.27613956 -0.90308744 -0.23473804
0000f0 4a 8a 10 c0 c7 2e 05 3f e2 77 95 3e 95 2b 9c 3e
       -2.2584405 0.520245 0.29193026 0.30502
000100 43 1e 3e 3f 7e ba 50 3f d3 36 92 bf 1b 35 82 3f
       0.74264926 0.81534564 -1.1422981 1.0172457
000110 39 ba 91 3d 1b 56 61 bf 64 bd 88 3f 08 a9 7a 3e
       0.07115597 -0.8802201 1.0682797 0.24478543
000120 b7 6f 33 bb ff 81 a4 3f 51 92 57 3c 4c 7c 78 3f
       -0.002737982 1.2852172 0.013157443 0.9706466
000130 69 ab 93 bc c5 a7 a0 bf 80 3b 28 be d5 84 d3 bf
       -0.01802607 -1.2551199 -0.16428947 -1.6524912
000140 4e aa e1 bf 7d 4f ce bf 73 73 38 c0 b4 04 4d c0
       -1.7630098 -1.6118008 -2.8820465 -3.203412
000150 5c b0 37 3f d2 6e 64 3f 88 e8 8a bf 75 46 cf 3f
       0.7175348 0.892316 -1.0852213 1.6193377
000160 19 0f e5 3f bc 28 ce be 91 6c 8d be af 9f 40 bf
       1.7895232 -0.40265453 -0.27621892 -0.7524366
000170 92 95 15 3f c2 8e 9a 3f 2f 67 71 3f a3 d6 9e 3f
       0.5843135 1.2074816 0.9429807 1.2409252
000180 65 a0 e1 be f7 e2 69 3f 01 64 a0 bc e0 3a 36 bf
       -0.44067684 0.91361946 -0.019578936 -0.71183586
000190 6f 29 fa bf 5f e5 2f c0 b0 79 a3 3d 71 86 12 bf
       -1.9543895 -2.7483747 0.079821944 -0.5723639
0001a0 69 6a 84 bf f3 87 27 bf 59 76 03 3f 1d 39 e0 3e
       -1.0344974 -0.6544182 0.5135246 0.43793574
0001b0 44 6b 8c bf ba ba dc bd f6 89 80 3e 6d f5 1a 3d
       -1.0970235 -0.10777803 0.25105256 0.037831713
0001c0 a0 60 8a 3f dd c6 fc 3e b6 b1 bd bf 9d 78 5e bf
       1.0810738 0.4937047 -1.4819858 -0.8690279
0001d0 b4 f8 aa bf de 10 0b bf 28 cb 36 bf f5 65 d7 bf
       -1.3357148 -0.5432261 -0.7140374 -1.682799
0001e0 2b 15 1e 3f d7 b6 80 3f 32 7b bb 3f 4b 1d f3 3f
       0.6175105 1.0055798 1.4646971 1.8993315
0001f0 c0 f3 c0 3f 10 de 58 3f ac 72 d0 bf 8a c9 03 c0
       1.5074387 0.8471384 -1.6284995 -2.059176
000200 37 ee 27 c0 a2 5d 4e bf e9 2b 1e c0 00 f6 14 3e
       -2.6239145 -0.8061162 -2.47143 0.14546967
000210 24 e6 0b c0 a6 ab ed be 4e 7d 4a 3f 4e c6 f2 3d
       -2.1859217 -0.4642002 0.7909745 0.1185423
000220 78 ee 78 bd 42 a1 2d c0 1f e8 c3 be 01 2c d9 3e
       -0.060774297 -2.7129674 -0.38263032 0.42416385
000230 00 cf 8f bd 0b 8d 0b 3f 83 46 aa 3f 07 b9 31 bf
       -0.07021904 0.5451209 1.3302768 -0.69422954
000240 94 41 8b 3f 4b 8a 02 c0 be cf 46 c0 48 5a 33 be
       1.0879388 -2.0396907 -3.1064296 -0.17514908
000250 31 35 50 bf 75 17 d5 be 7a 13 5d bf b4 1f 2d 3d
       -0.81331164 -0.4161946 -0.86357844 0.042266563
000260 e9 6c a1 3e b3 8b 09 c0 53 c2 b2 bf 47 d8 ba 3f
       0.31528404 -2.1491516 -1.3965553 1.4597253
000270 29 83 09 be 8b c9 0a 40 55 dc 01 40 18 cb c9 3f
       -0.1342894 2.1685512 2.029073 1.5765104
000280 9c 3c 26 40 21 b0 cd 3f c3 b7 8e bf 1b 7f 97 bf
       2.5974493 1.6069375 -1.114983 -1.1835665
000290 a7 f8 e4 bf 4d b6 b9 3f 2d 75 ca 3e 6f 96 53 40
       -1.7888383 1.4508759 0.39542523 3.3060567
0002a0 a4 95 91 bf c8 a3 85 3f ee 69 c4 be 84 9a b9 be
       -1.1373792 1.0440607 -0.38362068 -0.362507
0002b0 dd 0b 29 3f e1 bb 9c 3f 39 23 0b 40 15 c2 41 3e
       0.66033727 1.2244836 2.1740248 0.18921693
0002c0 07 3e 08 c0 9d cb e8 be cc ea fc bd 84 fc b9 3e
       -2.1287858 -0.45467845 -0.123494714 0.36325467
0002d0 6f 3a 87 bf 27 7a fa 3e f2 ba 35 3f 55 e8 eb 3e
       -1.0564708 0.4892132 0.7098838 0.46075693
0002e0 db 32 6b 3f 51 53 3b bf b3 5a 68 3e f1 a6 86 bf
       0.91874474 -0.73174006 0.22690849 -1.0519696
0002f0 bf 0f 64 c0 79 fc 48 3e 92 1d 8f 3e ef 6e ca 3e
       -3.563461 0.1962756 0.27952248 0.3953776
000300 5f 49 02 3f 79 7c d1 3f 59 5d a8 3e 75 99 f7 3e
       0.50893205 1.6366111 0.3288372 0.48359266
000310 0a c7 b0 3e 01 fc 32 3f d6 ba 9c bf ef 9f 9a bf
       0.34526855 0.6991578 -1.2244518 -1.2080058
000320 99 3f 1a 3f e2 dd 9b 3e b6 d8 ac bf 31 6c c0 bf
       0.6025329 0.3044272 -1.3503635 -1.5033017
000330 bd ef 8b be 94 a8 e5 bf d4 e3 ef 3e 02 b6 68 3f
       -0.27331343 -1.7942071 0.46853507 0.9090272
000340 e5 74 73 bf 34 68 96 bf 55 67 0a be 53 dc 86 3e
       -0.9510024 -1.175055 -0.1351598 0.2633997
000350 ef 96 1e 3f b4 95 87 bf 78 c7 de 3f 9c 9d d2 3e
       0.61949056 -1.0592561 1.7404623 0.4113587
000360 70 1f de 3f 74 6e a2 3f b7 68 fa bd d0 95 bf 3f
       1.7353344 1.2689958 -0.12227004 1.4967594
000370 eb 2d d7 3c 61 23 3f c0 fd a8 df bf bb 85 9a bf
       0.026267013 -2.9865344 -1.7473446 -1.2072061
000380 c0 ce a7 bf 80 d1 a2 3e 2d 3e 1e 3f 44 16 c2 3f
       -1.310997 0.3180046 0.6181362 1.5163045
000390 8b 91 58 3f 74 16 3f bf 0e ce c6 3e 9f f0 4a be
       0.8459708 -0.74643636 0.38829082 -0.19818352
0003a0 6b 69 1e bc 32 e6 b0 be 03 c4 3d 3e 27 82 ae 3f
       -0.009668688 -0.34550625 0.18531804 1.3633469
0003b0 8a 1f e3 3f ae bf cf 3e e6 c7 90 3f 17 fc 8e 3e
       1.7744 0.40575927 1.1311004 0.27926704
0003c0 b0 0d 05 be 0d 40 e3 3f de 14 d9 3f 4c f1 9c bf
       -0.12993503 1.7753922 1.6959493 -1.2261138
0003d0 62 a2 3e bf f2 fb d6 be a5 24 22 bf 1b 9b 7c 3f
       -0.74466527 -0.41989094 -0.63337165 0.9867417
0003e0 6a 9f 49 3f 15 af c7 3d 45 72 50 bf c7 8c 1c 3f
       0.7875887 0.09750191 -0.8142436 0.6115231
0003f0 24 a0 1f c0 fe b7 cc bf df 11 6c 3f f6 63 53 bf
       -2.4941492 -1.599365 0.9221477 -0.82574403

weight f4 [16]
000000 8e 53 c0 3f 7c 58 83 3f b9 50 bc 3f 95 6e a3 3f
       1.5025499 1.0261378 1.4712135 1.2768122
000010 79 5b a5 3f 5e 4e dc 3f 61 57 c3 3f 7f 30 05 40
       1.291854 1.7211416 1.5261041 2.081085
000020 c9 0d 95 3f fe 5e a3 3f b2 bc 03 40 f0 ee b0 3f
       1.1644832 1.2763364 2.058392 1.3822918
000030 ba cc f4 3f f5 44 13 40 3a 2a dd 3f 29 cf b1 3f
       1.9124978 2.3010838 1.7278512 1.3891345

bias f4 [16]
000000 e1 40 de be 4e b4 9d 3d 0d a8 52 3d e8 b8 b6 3e
       -0.43408874 0.07700406 0.051429797 0.35687947
000010 07 91 01 bf 15 19 04 3f 74 d2 c9 bd c7 5d 16 3f
       -0.5061192 0.5160077 -0.09854594 0.5873684
000020 5b bd c7 bd da fc b3 bc d2 c9 a7 bc 05 36 05 3e
       -0.097529136 -0.021971155 -0.020481978 0.13008888
000030 83 03 fc bd 6a 8a 9b be ee bf 40 bd 96 d0 5f 3d
       -0.12305357 -0.3037904 -0.04705804 0.054642282

running_mean f4 [16]
000000 1e 08 02 41 bd 5a af 40 09 c9 af 40 c2 7a 33 40
       8.126982 5.4798265 5.4932904 2.8043675
000010 ee ad 35 41 53 b1 10 40 5b cb b6 40 d1 1c 75 40
       11.354963 2.260823 5.7123237 3.8298838
000020 4a e4 e4 40 fc ab c9 40 e1 1c e9 40 fd c2 5b 40
       7.1528673 6.302244 7.2847753 3.4337761
000030 b6 67 70 40 22 39 94 40 6f 86 0a 41 cf 24 00 41
       3.75633 4.631974 8.657821 8.008986

running_var f4 [16]
000000 cd 00 4d 43 15 4f 1f 43 47 e1 2c 43 f8 82 9b 42
       205.00313 159.30891 172.87999 77.7558
000010 16 b2 36 43 45 7d 71 42 d8 8c 2e 43 03 ee 33 43
       182.69565 60.372334 174.55017 179.92973
000020 5f ef 81 43 c1 23 24 43 4f 76 68 43 9f cb e3 42
       259.8701 164.13966 232.46214 113.8977
000030 1d 25 13 43 62 42 12 43 7a b3 ad 43 d0 d0 5e 43
       147.14497 146.25931 347.40216 222.81567

weight f4 [32, 16, 3, 3]
000000 db 30 d6 3f 82 9e 30 3f 3d 8d c7 3d 94 f3 39 3e
       1.673366 0.68991864 0.09743736 0.18159324
000010 4b ec 56 bf 28 79 72 3e 70 26 2f bf 86 72 9d bf
       -0.83954304 0.2367903 -0.68418026 -1.2300575
000020 01 3d a8 3f 8f 4f b0 be df 82 81 be ae d3 71 3f
       1.3143617 -0.34435698 -0.2529516 0.9446362
000030 70 4b bb bc 3a 60 8c bf bb d2 39 3f 63 40 9e 3f
       -0.02286312 -1.0966866 0.72587174 1.2363399
000040 ef 78 e0 bf 5b 1e 75 bc 2a 5f 3c bf 58 2f 26 c0
       -1.7536906 -0.014960851 -0.7358271 -2.5966396
000050 1f fd b3 bf 3e 0a e2 bf e8 84 1c c0 96 c2 13 bf
       -1.4061621 -1.7659376 -2.445612 -0.5771879
000060 c9 88 6a bf 5b 2e ff bf 72 8e 7f 3e bf d1 71 bf
       -0.9161497 -1.9936022 0.24956682 -0.9446067
000070 8d ac 18 bf 74 b1 af 3e f7 ad c3 3d b8 ff 3a be
       -0.5963829 0.34315073 0.095546655 -0.18261611
000080 10 86 3b 3f ce d7 59 bf 3c 61 27 be 27 7e 8d be
       0.7325144 -0.85094917 -0.16345686 -0.2763531
000090 73 6a db bf 9d 43 b5 bf 60 6b 4d 3f bd 08 7b 3d
       -1.7141861 -1.4161259 0.80241966 0.06128763
0000a0 89 50 f4 3e eb 0f d7 3f 48 c8 55 bf 87 8c b2 3b
       0.47717693 1.6801733 -0.8350873 0.005448881
0000b0 12 0c 18 3f 99 94 5f 3f 1e fb 09 40 c6 11 2f 3f
       0.5939342 0.8733612 2.155952 0.68386495
0000c0 fb 9b bc 3f a3 50 99 3f 8f 19 b9 be a6 84 dc 3d
       1.4735101 1.1977733 -0.36152312 0.10767488
0000d0 15 09 ed bf 12 44 99 bd 2d ea 0e bf e8 6d 28 3f
       -1.8518397 -0.074836865 -0.55826074 0.65792704
0000e0 3d 64 b1 3f c1 83 d3 bf 44 29 77 be 22 76 9d 3f
       1.3858715 -1.6524583 -0.24136835 1.2301676
0000f0 ea 33 16 c0 a6 8e 25 bf 8f 37 65 3f f2 8e 22 3f
       -2.3469186 -0.6467079 0.895379 0.6349937
000100 25 a3 c5 3e 40 07 34 bf 62 55 9e bd 28 8d 4f bf
       0.38601032 -0.7032356 -0.07731129 -0.8107476
000110 e5 cb 7e bf 06 1c 0b 3f ff 89 0f be 51 9a 2a be
       -0.9952987 0.54339635 -0.14017485 -0.1666043
000120 d4 e8 d1 3e 63 91 11 bf e0 35 93 bf 39 93 7f bf
       0.40997946 -0.5686247 -1.1500816 -0.9983402
000130 6a 6a d4 bf 62 2b 50 c0 9a 72 1f bf cc b5 a2 bf
       -1.6594975 -3.2526479 -0.62284243 -1.271173
000140 49 e4 2c c0 e9 54 4d be fa 0d fc bf 2e 27 3b c0
       -2.7014334 -0.20051922 -1.9691765 -2.9242663
000150 f5 7a 0e c0 46 e8 3c c0 de d9 00 c0 2b 6f 58 bf
       -2.2262547 -2.9516768 -2.0132976 -0.8454463
000160 57 ed bd bd 43 b8 03 bf a0 c6 8e bf 44 6f a8 3d
       -0.092737846 -0.51453036 -1.1154366 0.08224347
000170 2b a4 41 be 5c c4 15 bf cd c8 54 bf ef 79 30 bf
       -0.18910281 -0.58502746 -0.831189 -0.68936056
000180 7a c5 67 3f 69 df d6 3f 5e 3a 3b bf 1d 3e 60 3e
       0.905357 1.6786929 -0.73135936 0.21898694
000190 12 e9 54 3f 2b 6f c9 3e 36 ff 04 3f d3 fd 2f 3f
       0.8316814 0.39342627 0.5195192 0.6874668
0001a0 6d b4 b1 bf 0b b7 4e bf 90 82 b9 bf 39 28 fe bf
       -1.3883187 -0.8074805 -1.449297 -1.9856025
0001b0 49 15 31 3f 79 99 0e c0 68 09 80 bf 11 be 60 bf
       0.69173104 -2.2281172 -1.000287 -0.8779002
0001c0 86 a4 ac be 71 3e d5 3e 1b 1d e8 be a6 c2 92 bf
       -0.3371927 0.41649202 -0.45334706 -1.1465652
0001d0 d6 8e 67 bd 19 ec 28 bf 8f b1 b0 bf 18 38 ca bc
       -0.056532703 -0.65985256 -1.3804187 -0.02468495
0001e0 ae bf 24 bd 23 46 80 be e7 f4 c8 bd 62 14 b7 be
       -0.040221862 -0.2505351 -0.098123364 -0.35757738
0001f0 27 73 82 3f 70 5c 5e bf 47 ff eb 3e 35 ce c5 be
       1.0191392 -0.868598 0.460932 -0.38633886
000200 1a c4 92 bf 93 79 ce 3e 8e 4a fd 3e 5a 26 85 bf
       -1.1466095 0.4032713 0.49470943 -1.0402329
000210 4b a2 35 3f cd 48 42 bf b3 f3 c5 bf e9 8d 09 3f
       0.70950764 -0.75892335 -1.5464996 0.5373216
000220 05 7c 6d bf c4 83 ac bf ec f6 c3 be 28 2c e0 bf
       -0.92767364 -1.3477712 -0.38274324 -1.7513475
000230 21 ab 9a bf 9c 10 b9 3e 33 4d a2 3e 06 6f 01 be
       -1.2083474 0.36145484 0.31699523 -0.12640008
000240 fd 37 e5 3e 73 5c 98 be 45 ae de be 11 25 c3 3e
       0.44769278 -0.29758033 -0.43492332 0.38114217
000250 c2 c3 cf bf 63 ec 5d bf f7 d8 bb 3f 1f c8 48 bf
       -1.6231616 -0.8668882 1.4675587 -0.7843036
000260 ce 1b 32 3f e3 0d 49 3d e1 fd 10 be 4e 79 e9 bd
       0.69573677 0.04908551 -0.14159347 -0.1140009
000270 15 54 8c 3f 0a 6d 42 3f ec dd 9c bf 11 a2 a5 3f
       1.096316 0.7594763 -1.2255225 1.2940084
000280 8c a1 f1 be d0 bf be 3d 24 1a 98 3e 11 2a e2 3e
       -0.47193563 0.09313929 0.29707444 0.4417272
000290 41 5f 23 3f 84 91 b6 3e ad d4 b1 3e 80 ed 2e 3f
       0.6381722 0.35657895 0.3473257 0.68331146
0002a0 c0 7c b9 3e c8 98 31 3f 7b 9e 5b bf b9 9a d0 3e
       0.3622799 0.6937375 -0.85788697 0.40743044
0002b0 89 91 31 3f 1e 9f 11 40 09 ee 4c 3f 32 16 a0 3f
       0.69362694 2.2753367 0.8005071 1.2506773
0002c0 fb ff 23 3f 6b 73 2a 3f e7 6c 22 bf 42 43 01 c0
       0.6406247 0.66582364 -0.6344742 -2.01973
0002d0 49 08 a4 bf dc 0b 44 3f 51 6f d2 3f 1f a5 87 bf
       -1.2815028 0.76580596 1.6440221 -1.0597266
0002e0 7b e2 24 3f 00 18 e2 3f a9 37 84 bf 29 35 04 be
       0.6440808 1.7663574 -1.0329486 -0.12910904
0002f0 6b 1a b4 3e 55 82 b5 3d c4 33 ed bf 47 28 1e bf
       0.35176405 0.088627495 -1.8531423 -0.6178021
000300 7f 29 41 c0 ed 5a 15 c0 66 66 f5 be 36 b5 4d bf
       -3.0181577 -2.3336747 -0.47929686 -0.8035463
000310 ee 02 93 bf 2e d4 d9 be 13 d1 55 bf 41 2d 0a c0
       -1.1485269 -0.42544693 -0.83522147 -2.159012
000320 20 d6 47 bf 37 fc 81 3f c5 3d 39 3f 83 69 ec 3e
       -0.78061104 1.0155095 0.7235988 0.4617425
000330 c3 63 95 be 3e 1a 1b be 0d 51 b4 3d d9 be fe 3d
       -0.29177675 -0.1514673 0.08804522 0.12438745
000340 bf a4 81 3f ea 15 cf 3f e1 02 80 3f 3e 3a 1f 40
       1.0128402 1.6178563 1.0000879 2.4879298
000350 48 77 03 40 a6 e7 22 3e 55 0c d7 3c cb 63 04 be
       2.0541553 0.1590868 0.026250998 -0.12928693
000360 f6 45 0f bf ae e9 ce 3e dc 45 eb 3e 46 39 0f 40
       -0.55966127 0.40412658 0.45951736 2.2378707
000370 22 a1 06 40 67 50 80 3e 97 de a7 3e fa c9 91 3e
       2.1035848 0.25061342 0.3278701 0.28474408
000380 c3 33 91 bf f8 c2 3b 3d 4a 03 8e bf ac a4 b2 bf
       -1.1343921 0.045840234 -1.1094754 -1.3956504
000390 1b 2e 14 40 83 29 95 3f 40 24 bc be 31 fe 5a 3f
       2.315314 1.1653293 -0.36746407 0.85544115
0003a0 e9 18 91 bd c3 57 82 bf 84 d1 d5 be 83 a1 43 3d
       -0.07084829 -1.0183033 -0.4176141 0.04776145
0003b0 06 ce 10 bf 11 0d 99 3f 88 ca 41 3f e1 b0 f3 3e
       -0.56564367 1.1957113 0.75699663 0.47595885
0003c0 48 79 14 be a3 81 be be df fc 3d 3f a4 85 55 3e
       -0.1449939 -0.3720828 0.74213976 0.20851761
0003d0 da c6 dc bf 6d 40 cc bf 66 f3 4a 3f 65 55 58 3f
       -1.7248185 -1.5957161 0.79277647 0.845053
0003e0 68 03 d0 bf 4b 4a d4 3f 0c 8c 4a 3f c4 11 b2 bd
       -1.625104 1.6585172 0.79119945 -0.08694795
0003f0 3c 17 c7 be 41 e3 b4 bf a2 86 8b bf b5 b2 ae bf
       -0.38884914 -1.4131852 -1.0900462 -1.3648287
